模型保存路径： VAE_Optimized/model.pth
运行日志已保存至：VAE_Optimized/output.txt
加载数据...
训练数据形状: (125973, 42)
测试数据形状: (22544, 42)

数据预处理...
合并后数据集大小: (148517, 42)

数据集划分...
正常数据形状: (37235, 41)
异常数据形状: (32765, 41)

标准化和归一化...

划分训练集、验证集和测试集...
训练集形状: (31649, 41)
验证集形状: (3742, 41)
测试集(正常)形状: (1844, 41)
测试集(异常)形状: (32765, 41)

创建PyTorch数据集...
使用设备: cpu
创建VAE模型...
VAE(
  (encoder): Sequential(
    (0): Linear(in_features=41, out_features=20, bias=True)
    (1): BatchNorm1d(20, eps=1e-05, momentum=0.1, affine=True, track_running_stats=True)
    (2): ReLU()
    (3): Dropout(p=0.2, inplace=False)
    (4): Linear(in_features=20, out_features=10, bias=True)
    (5): BatchNorm1d(10, eps=1e-05, momentum=0.1, affine=True, track_running_stats=True)
    (6): ReLU()
    (7): Dropout(p=0.2, inplace=False)
  )
  (fc_mu): Linear(in_features=10, out_features=2, bias=True)
  (fc_var): Linear(in_features=10, out_features=2, bias=True)
  (decoder): Sequential(
    (0): Linear(in_features=2, out_features=10, bias=True)
    (1): BatchNorm1d(10, eps=1e-05, momentum=0.1, affine=True, track_running_stats=True)
    (2): ReLU()
    (3): Dropout(p=0.2, inplace=False)
    (4): Linear(in_features=10, out_features=20, bias=True)
    (5): BatchNorm1d(20, eps=1e-05, momentum=0.1, affine=True, track_running_stats=True)
    (6): ReLU()
    (7): Dropout(p=0.2, inplace=False)
    (8): Linear(in_features=20, out_features=41, bias=True)
    (9): Sigmoid()
  )
)
Epoch 1: train loss nan (recon: nan, kl: nan) | val loss 9.7937 (recon: 9.7201, kl: 0.0737)
Epoch 2: train loss nan (recon: nan, kl: nan) | val loss 9.7929 (recon: 9.7193, kl: 0.0737)
Epoch 3: train loss nan (recon: nan, kl: nan) | val loss 9.7942 (recon: 9.7206, kl: 0.0737)
Epoch 4: train loss nan (recon: nan, kl: nan) | val loss 9.7952 (recon: 9.7215, kl: 0.0737)
…
